wizard_of_oz.pth (torch, 27829 bytes, 1 tensors)

weight f4 [80, 80]
2.499014 -0.9053972 -11.424084 2.0640178 -10.878472 -11.461827 -11.476066 -11.929696
-11.490395 -11.369285 -11.544151 -11.26155 -11.665687 -12.1079645 -11.37737 -11.484812
-11.293458 -11.051269 -11.567893 -10.965264 -10.816198 -11.358205 -11.690783 -11.585029
-11.894356 -1.1660048 -1.1750833 -1.3032186 -0.97980946 -1.6413269 -2.2714243 -2.5183513
-1.4338691 -1.0343201 -1.3233039 -8.497616 -3.1309416 -3.1912403 -2.0630894 -1.7840658
-1.9794976 -11.181851 -4.6935515 -0.9564348 0.47058555 -7.3061466 -3.387881 -1.0072124
-11.75724 -11.375541 -1.8507987 -1.0892898 -11.717364 -4.418366 0.76082504 0.017513033
0.030982675 -0.58710736 -0.41260698 -0.24626161 -0.7149995 -0.112032555 -0.22061622 -3.0240173
-2.32456 -0.48475298 -0.5106892 -1.128464 -0.17448696 -0.17133604 -4.9872165 -0.703891
0.36042565 1.1101176 -1.2090156 -2.080464 0.3494261 -11.403016 -1.2560523 -10.620018
-13.965468 0.6903779 -13.887377 -0.36259073 -7.732383 -2.91106 -13.978979 -13.772959
-3.7418396 -13.647139 -13.910386 -13.978877 -13.844273 -2.4945238 -4.066734 -6.7843676
-5.566854 -4.8300467 -7.0560203 -6.770397 -5.378965 -6.092276 -13.95017 -13.825734
-13.859478 -1.7935821 -1.3946599 -2.0407002 -0.92220724 -1.6786733 -2.7320564 -1.7989526
-1.9236708 -0.34392375 -1.3004262 -3.3668349 -2.215575 -1.6697992 -2.8863113 -1.4279772
-1.4022373 -6.542903 -2.2720816 -1.4523621 -0.6704246 -3.1174645 -2.3468754 -0.45987427
-13.889502 -3.1689935 -1.4714606 -8.626959 -14.010149 -3.3652163 1.9089917 1.0210755
0.7452522 0.4130366 0.086049266 0.6165734 0.2394955 1.1353273 0.8762902 -1.5717483
-0.89033717 0.32679895 0.6362963 0.15984854 1.126001 0.33982536 -1.8997456 0.11581149
1.4443651 2.3053467 -0.09202907 -0.91391075 1.3421586 -13.994613 -0.10714 -8.188143
-1.0457233 0.9180564 -4.954611 2.7104197 -4.3527226 -3.6927416 -3.559216 -1.6211326
-4.018452 -3.6864614 -3.6387608 -3.4291112 -2.470699 -4.207451 -4.0475535 -3.978915
-2.6212623 -4.087537 -5.129031 -3.4989457 -2.7660894 -5.0097117 -3.1736698 -3.0151775
-3.5602596 -3.243819 -3.2663903 -3.8285499 -3.269496 -5.082666 -2.386017 -4.424017
-3.9771209 -2.9578474 -1.7534088 -4.62144 -3.2988555 -3.5814943 -3.502778 -3.7398586
-2.843587 -2.124895 -3.7929885 -3.2664988 -3.0568945 -4.140322 -3.3048089 -3.4821198
-2.7472389 -6.3985596 -4.983179 -3.9679987 -4.202165 -3.813024 -3.2429392 -4.2019167
-2.7558944 -3.1978316 -3.3499436 -3.2824337 -5.327017 -3.692689 -2.8442483 -2.652762
-3.7364798 -4.3168187 -2.0729837 -3.8896368 -4.1604548 -2.968279 -3.510239 -4.2478375
-3.6922104 -4.1947613 -4.094379 -3.2956054 -3.1574197 -3.0541246 -2.8353312 -2.5623355
1.8897833 2.2757695 -10.009588 -10.838236 -10.782724 -6.2204723 -10.367083 -9.928796
-10.684465 -10.909465 -10.730904 -9.599002 -10.674902 -10.454992 -10.86393 -10.43314
00000000: d8ef 1f40 1cc8 67bf 0cc9 36c1 de18 0440
00000010: 390e 2ec1 a563 37c1 f79d 37c1 09e0 3ec1
00000020: a8d8 37c1 97e8 35c1 d8b4 38c1 4f2f 34c1
00000030: a7a6 3ac1 39ba 41c1 b509 36c1 cac1 37c1
00000040: 01b2 34c1 ffd1 30c1 1716 39c1 b971 2fc1
00000050: 260f 2dc1 35bb 35c1 720d 3bc1 475c 39c1
00000060: 484f 3ec1 a53f 95bf 2169 96bf decf a6bf
00000070: cbd4 7abf 0017 d2bf 045f 11c0 ab2c 21c0
00000080: 0689 b7bf 9a64 84bf 0662 a9bf 3cf6 07c1
00000090: 5961 48c0 483d 4cc0 a809 04c0 455c e4bf
000000a0: 2d60 fdbf dde8 32c1 9331 96c0 e9d8 74bf
000000b0: 97f0 f03e f4cb e9c0 0bd3 58c0 56ec 80bf
000000c0: a81d 3cc1 3702 36c1 f9e6 ecbf d96d 8bbf
000000d0: 537a 3bc1 4163 8dc0 6ec5 423f 7e77 8f3c
000000e0: 61cf fd3c ab4c 16bf 3941 d3be 012c 7cbe
000000f0: 350a 37bf 5371 e5bd 38e9 61be 8089 41c0
00000100: 97c5 14c0 8b31 f8be 87bc 02bf 8271 90bf
00000110: b6ac 32be b772 2fbe 4797 9fc0 3332 34bf
00000120: b689 b83e 5518 8e3f 06c1 9abf 5226 05c0
00000130: fae7 b23e c172 36c1 52c6 a0bf 98eb 29c1
00000140: 8f72 5fc1 9bbc 303f b232 5ec1 7ea5 b9be
00000150: ae6f f7c0 cf4e 3ac0 e6a9 5fc1 0a5e 5cc1
00000160: 4d7a 6fc0 ae5a 5ac1 f190 5ec1 7ba9 5fc1
00000170: 2482 5dc1 47a6 1fc0 af22 82c0 8a19 d9c0
00000180: ab23 b2c0 be8f 9ac0 ebca e1c0 18a7 d8c0
00000190: 7b20 acc0 edf3 c2c0 e533 5fc1 3536 5dc1
000001a0: 6cc0 5dc1 1994 e5bf 3784 b2bf d59a 02c0
000001b0: c615 6cbf c4de d6bf 03da 2ec0 1444 e6bf
000001c0: d83a f6bf c616 b0be 5e74 a6bf 397a 57c0
000001d0: fbcb 0dc0 fbbb d5bf 53b9 38c0 f5c7 b6bf
000001e0: 837c b3bf 765f d1c0 c969 11c0 00e7 b9bf
000001f0: f2a0 2bbf 8a84 47c0 3533 16c0 a474 ebbe
00000200: 663b 5ec1 cad0 4ac0 d258 bcbf 0608 0ac1
00000210: 9229 60c1 b45f 57c0 d759 f43f 9ab2 823f
00000220: d9c8 3e3f 8979 d33e 993a b03d c1d7 1d3f
00000230: 4f3e 753e 6852 913f 8e54 603f 0c2f c9bf
00000240: 23ed 63bf 3152 a73e 50e4 223f 56af 233e
00000250: cd20 903f 97fd ad3e dd2a f3bf 932e ed3d
00000260: f5e0 b83f cd8a 1340 bd79 bcbd 0ef6 69bf
00000270: dacb ab3f efe9 5fc1 376c dbbd a202 03c1
00000280: 43da 85bf bf05 6b3f 2c8c 9ec0 8477 2d40
00000290: 8149 8bc0 e155 6cc0 32ca 63c0 4681 cfbf
000002a0: 2997 80c0 fcee 6bc0 75e1 68c0 8f76 5bc0
000002b0: ef1f 1ec0 70a3 86c0 8f85 81c0 8ba6 7ec0
000002c0: c3c2 27c0 1acd 82c0 0621 a4c0 baee 5fc0
000002d0: 9c07 31c0 8f4f a0c0 681d 4bc0 abf8 40c0
000002e0: 4bdb 63c0 bb9a 4fc0 8a0c 51c0 f606 75c0
000002f0: 6c3f 51c0 33a5 a2c0 81b4 18c0 8c91 8dc0
00000300: 2689 7ec0 5f4d 3dc0 b36f e0bf d6e2 93c0
00000310: 7320 53c0 3437 65c0 842d 60c0 d859 6fc0
00000320: 54fd 35c0 48fe 07c0 53c0 72c0 510e 51c0
00000330: 29a4 43c0 857d 84c0 fd81 53c0 0ddb 5ec0
00000340: c3d2 2fc0 00c1 ccc0 3476 9fc0 b1f3 7dc0
00000350: 2378 86c0 9608 74c0 518c 4fc0 1a76 86c0
00000360: 9360 30c0 46a9 4cc0 7a65 56c0 6513 52c0
00000370: ec76 aac0 0455 6cc0 2a08 36c0 dac6 29c0
00000380: 7c22 6fc0 6123 8ac0 c4ab 04c0 cfef 78c0
00000390: 7222 85c0 48f8 3dc0 c1a7 60c0 49ee 87c0
000003a0: 2d4d 6cc0 7c3b 86c0 2705 83c0 33eb 52c0
000003b0: 2a13 4ac0 c776 43c0 1176 35c0 4efd 23c0
000003c0: 6be4 f13f 35a6 1140 4627 20c1 6a69 2dc1
000003d0: 0a86 2cc1 1c0e c7c0 92df 25c1 59dc 1ec1
000003e0: 92f3 2ac1 2b8d 2ec1 c8b1 2bc1 8395 19c1
000003f0: 66cc 2ac1 a647 27c1 a8d2 2dc1 24ee 26c1
