wizard_of_oz.pth (torch, 27829 bytes, 1 tensors)

weight f4 [80, 80]
0	0x401deaf0	2.4674644
1	0xbf65ebf1	-0.89813143
2	0xc13dc2b0	-11.860031
3	0x3ffd0527	1.9767197
4	0xc13826ff	-11.509521
5	0xc13e267d	-11.884397
6	0xc13e4c23	-11.893588
7	0xc142f955	-12.185872
8	0xc13e720a	-11.902842
9	0xc13d3242	-11.82477
10	0xc13effc6	-11.937445
11	0xc13c1a02	-11.75635
12	0xc1403f88	-12.015511
13	0xc144e2c1	-12.30536
14	0xc13d47ab	-11.829997
15	0xc13e6333	-11.899219
16	0xc13c6d12	-11.7766285
17	0xc139f19d	-11.621488
18	0xc13f3e5f	-11.952727
19	0xc1390db0	-11.565842
20	0xc1378093	-11.46889
21	0xc13d1560	-11.8177185
22	0xc1408056	-12.031332
23	0xc13f6be9	-11.963845
24	0xc1429b60	-12.162933
25	0xbf9f8a0a	-1.2464001
26	0xbf9845b5	-1.1896273
27	0xbfb1bbcf	-1.388544
28	0xbf810e33	-1.0082458
29	0xbfdf7433	-1.7457336
30	0xc011989c	-2.2749395
31	0xc0211532	-2.5169187
32	0xbfb9ae4d	-1.4506317
33	0xbf82a6c7	-1.0207146
34	0xbfacfb71	-1.3514234
35	0xc10b2afa	-8.697992
36	0xc046283c	-3.0962057
37	0xc0501113	-3.2510421
38	0xc004a23c	-2.072402
39	0xbfe95312	-1.8228476
40	0xc001b67b	-2.0267627
41	0xc13b4b22	-11.705843
42	0xc0bc9226	-5.8928404
43	0xbf81841b	-1.011844
44	0x3ef359ee	0.47529548
45	0xc0eb908e	-7.361396
46	0xc068117d	-3.6260674
47	0xbf879cc2	-1.0594714
48	0xc1412f9f	-12.074126
49	0xc13d42eb	-11.828837
50	0xbff20ce7	-1.8910187
51	0xbf8b1603	-1.0866092
52	0xc140c646	-12.048407
53	0xc08e850e	-4.453742
54	0x3f37b6fb	0.7176358
55	0x3d55bdb8	0.052182883
56	0x3d33f646	0.043936037
57	0xbf2c6d82	-0.67354596
58	0xbef0c0df	-0.4702215
59	0xbe76b627	-0.24092923
60	0xbf3c294d	-0.7350052
61	0xbdc7c0be	-0.097535595
62	0xbe81fd65	-0.25388637
63	0xc05ec28e	-3.4806247
64	0xc015aa07	-2.3385026
65	0xbf00ef79	-0.50365406
66	0xbf0619e0	-0.5238323
67	0xbf97f238	-1.1870794
68	0xbe682f63	-0.22674327
69	0xbe42b9ec	-0.19016236
70	0xc0b1d6f1	-5.557488
71	0xbf338b1a	-0.7013413
72	0x3eb8a81b	0.36065754
73	0x3f8711f0	1.0552349
74	0xbfa8e269	-1.3194095
75	0xc0067bb0	-2.1012993
76	0x3ead5f91	0.33861974
77	0xc13d8b3d	-11.846494
78	0xbfa8729d	-1.3159977
79	0xc1357082	-11.339968
80	0xc1616e5d	-14.089444
81	0x3f2f5b67	0.68498844
82	0xc160a5ee	-14.04051
83	0xbec329c4	-0.38117802
84	0xc0f12899	-7.536206
85	0xc039b692	-2.9017682
86	0xc1619297	-14.098289
87	0xc15f8e15	-13.972188
88	0xc07ec92a	-3.981028
89	0xc15e5c88	-13.897591
90	0xc160df00	-14.054443
91	0xc161924c	-14.098217
92	0xc1603bad	-14.014569
93	0xc0205931	-2.5054438
94	0xc08028ec	-4.0049953
95	0xc0db7441	-6.857941
96	0xc0ca798e	-6.327338
97	0xc0a9dde9	-5.3083386
98	0xc0e4852f	-7.141258
99	0xc0d808eb	-6.7510886
100	0xc0a7a6fb	-5.2391334
101	0xc0dbd8bb	-6.8702064
102	0xc1614647	-14.079658
103	0xc1600e63	-14.003512
104	0xc1606125	-14.023717
105	0xbfe6f525	-1.8043562
106	0xbfb5e8ca	-1.4211667
107	0xc005e493	-2.092076
108	0xbf6e6313	-0.93119925
109	0xbfd82ed4	-1.6889291
110	0xc02dab40	-2.7135773
111	0xbfea36ad	-1.8297936
112	0xbff54745	-1.9162375
113	0xbe9caa60	-0.30598736
114	0xbfa9d3bc	-1.3267741
115	0xc0566fb9	-3.350569
116	0xc00f8b74	-2.2428865
117	0xbfe02573	-1.7511429
118	0xc041b537	-3.0266855
119	0xbfb9e3ed	-1.4522682
120	0xbfb4b7c5	-1.4118582
121	0xc0ea2338	-7.316799
122	0xc0153e2f	-2.3319204
123	0xbfb99312	-1.4498007
124	0xbf34f523	-0.7068655
125	0xc044feb0	-3.078045
126	0xc018d6cb	-2.38811
127	0xbf02c15c	-0.51076293
128	0xc160ab1b	-14.041774
129	0xc04c97d0	-3.196766
130	0xbfc07074	-1.5034318
131	0xc11cef7f	-9.808471
132	0xc161e59a	-14.118555
133	0xc0554026	-3.3320403
134	0x3ff109f6	1.8831165
135	0x3f813bd8	1.0096388
136	0x3f32cbeb	0.69842404
137	0x3eb47286	0.35243624
138	0x3d4941dd	0.049135078
139	0x3f148ee2	0.5803052
140	0x3e6ef05d	0.23333879
141	0x3f8e394a	1.1111233
142	0x3f594646	0.84872854
143	0xbfcd8b09	-1.6058055
144	0xbf6cdaff	-0.9252166
145	0x3e992022	0.29907328
146	0x3f1c58ee	0.61073196
147	0x3e1f6304	0.15565115
148	0x3f900d02	1.125397
149	0x3eaafd17	0.33396217
150	0xbff55329	-1.9166003
151	0x3e178ca2	0.14799741
152	0x3fb453cb	1.4088072
153	0x4012f797	2.2963617
154	0xbe3b7bc1	-0.18308927
155	0xbf6d1381	-0.92607886
156	0x3faa2949	1.3293849
157	0xc161bbf0	-14.108383
158	0xbdeab980	-0.114611626
159	0xc115e3f5	-9.368154
160	0xbf8d6772	-1.1047194
161	0x3f661e9f	0.89890474
162	0xc0a74290	-5.2268753
163	0x402fd77d	2.7475274
164	0xc094968e	-4.6433783
165	0xc0801798	-4.00288
166	0xc077e226	-3.873178
167	0xbffecebd	-1.9906842
168	0xc08a359d	-4.3190446
169	0xc07fca0c	-3.996707
170	0xc07cd378	-3.950407
171	0xc06fcc87	-3.7468584
172	0xc0343a48	-2.8160572
173	0xc0901339	-4.5023465
174	0xc08b1c3f	-4.347198
175	0xc088f9ea	-4.280507
176	0xc03d95be	-2.9622645
177	0xc08c599f	-4.38594
178	0xc0acaae5	-5.395861
179	0xc0742539	-3.814772
180	0xc04696a6	-3.1029449
181	0xc0a8f7bb	-5.2802405
182	0xc05fed0d	-3.4988434
183	0xc0561266	-3.344873
184	0xc077f306	-3.874208
185	0xc0644916	-3.5669608
186	0xc065afae	-3.5888476
187	0xc0844f08	-4.1346474
188	0xc065e17a	-3.591887
189	0xc0ab3c4e	-5.3511114
190	0xc02ef636	-2.7337775
191	0xc096cd3b	-4.7125525
192	0xc088ebca	-4.278783
193	0xc0528264	-3.2892084
194	0xc007a1e1	-2.1192553
195	0xc09ced11	-4.903939
196	0xc067b3aa	-3.6203408
197	0xc07946c9	-3.8949454
198	0xc0746111	-3.8184245
199	0xc0818f1c	-4.0487194
200	0xc04b683f	-3.1782377
201	0xc01eb892	-2.4800153
202	0xc0833575	-4.1002755
203	0xc065b169	-3.5889533
204	0xc058a8df	-3.385307
205	0xc08dfd80	-4.437195
206	0xc068125b	-3.6261203
207	0xc0731920	-3.7984085
208	0xc0456c44	-3.084733
209	0xc0d3e297	-6.62141
210	0xc0a8249c	-5.254469
211	0xc088a325	-4.269915
212	0xc08fe967	-4.4972415
213	0xc083d365	-4.119555
214	0xc0643b4a	-3.5661187
215	0xc08fe763	-4.4969954
216	0xc045f51a	-3.0930848
217	0xc0616d3d	-3.5222924
218	0xc06ae14c	-3.670001
219	0xc066aef8	-3.6044292
220	0xc0b2ccd4	-5.5875034
221	0xc080172b	-4.002828
222	0xc04b72c0	-3.1788788
223	0xc03f8aad	-2.992839
224	0xc081743b	-4.0454383
225	0xc0937880	-4.6084595
226	0xc01b800d	-2.4296906
227	0xc08635ae	-4.1940527
228	0xc08e9dc2	-4.4567575
229	0xc0532870	-3.299343
230	0xc074d798	-3.8256588
231	0xc09153ce	-4.54148
232	0xc080134b	-4.002355
233	0xc08faf3c	-4.490141
234	0xc08c9097	-4.39265
235	0xc0678031	-3.6171992
236	0xc05eeafb	-3.483092
237	0xc0587dd1	-3.3826792
238	0xc04ae54d	-3.1702454
239	0xc039ebdd	-2.905021
240	0x3ff32fbe	1.8998945
241	0x40109b04	2.2594614
242	0xc12b05da	-10.688929
243	0xc134639c	-11.274319
244	0xc133c5ca	-11.235788
245	0xc0c8fa03	-6.280519
246	0xc12f2368	-10.946144
247	0xc12a110a	-10.62916
248	0xc132afa2	-11.167879
249	0xc1352d1c	-11.323513
250	0xc1333231	-11.199754
251	0xc1261424	-10.379917
252	0xc132949b	-11.161281
253	0xc13023ed	-11.008771
254	0xc134ac18	-11.292015
255	0xc12fe3f5	-10.993154
