free-code-camp/bigram.pth (torch, 27735 bytes, 1 tensors)

weight f4 [80, 80]
2.4298134 -0.8805428 -12.142235 1.9206524 -11.916426 -12.158038 -12.163961 -12.358178
-12.169926 -12.119325 -12.192669 -12.07498 -12.244028 -12.436632 -12.122731 -12.1676035
-12.088139 -11.988914 -12.202615 -11.952783 -11.890218 -12.11471 -12.254876 -12.209888
-12.343337 -1.3184153 -1.3504881 -1.4997787 -1.0807115 -1.8396362 -2.4479005 -2.7419846
-1.5310963 -1.0244497 -1.4099162 -9.81063 -3.5521803 -3.277142 -2.2987947 -1.8459039
-2.2994318 -12.042518 -7.1974277 -1.0625656 0.43106326 -8.085877 -4.134438 -1.1205653
-12.283975 -12.121967 -2.0686276 -1.0638057 -12.266466 -4.5374784 0.71433777 0.03568369
0.04074561 -0.700498 -0.53883976 -0.21907958 -0.80279905 -0.112260036 -0.29666853 -4.025615
-2.362076 -0.503567 -0.5894387 -1.1924589 -0.26102626 -0.24210502 -5.5651536 -0.78187275
0.3234496 0.9864507 -1.3823075 -2.067947 0.31242043 -12.133411 -1.3283857 -11.80722
-14.177082 0.645436 -14.144909 -0.4138133 -7.4046187 -2.897558 -14.182944 -14.100487
-4.004954 -14.053478 -14.1540365 -14.182898 -14.128 -2.5020387 -4.0017014 -6.9684625
-7.41459 -5.51197 -7.00406 -6.986692 -5.496035 -6.7020307 -14.170578 -14.120779
-14.133917 -1.8310918 -1.4723917 -2.1599188 -0.94626117 -1.758266 -2.7374578 -1.8476344
-1.9766648 -0.37542984 -1.3314215 -3.3332717 -2.2888741 -1.7380036 -3.0988464 -1.4595163
-1.4262725 -7.4117866 -2.3353872 -1.5011789 -0.6823388 -3.3717606 -2.4641728 -0.5395786
-14.145726 -3.2453516 -1.5109613 -9.746009 -14.196417 -3.4609056 1.8674257 0.96418524
0.6879768 0.30879417 0.07377939 0.62795717 0.20029084 1.1193562 0.84953785 -1.6408155
-0.92707896 0.30209246 0.55148596 0.14507023 1.0813651 0.31518477 -1.9164319 0.10173413
1.3970827 2.2794025 -0.16398613 -0.94948053 1.3164728 -14.189619 -0.1530401 -9.278026
-1.294242 0.7984613 -5.538617 2.8516476 -4.9731364 -4.351822 -4.225992 -2.397363
-4.6586123 -4.345857 -4.300895 -4.103334 -3.1993432 -4.8361316 -4.685777 -4.6212325
-3.3412724 -4.7234225 -5.702105 -4.169067 -3.4779353 -5.5903025 -3.8624258 -3.712927
-4.2269807 -3.9286213 -3.9498003 -4.4797444 -3.9527967 -5.6584353 -3.1194584 -5.0401397
-4.619534 -3.6588352 -2.52236 -5.225863 -3.9804213 -4.2471094 -4.172587 -4.3962426
-3.5510721 -2.8728209 -4.446447 -3.949903 -3.752269 -4.7732334 -3.9860747 -4.153462
-3.460291 -6.881709 -5.5652213 -4.6108923 -4.8311563 -4.4650345 -3.9277983 -4.8309226
-3.468361 -3.885224 -4.0285997 -3.9649854 -5.8872976 -4.351773 -3.5517035 -3.3711803
-4.3929963 -4.9392996 -2.8241384 -4.537104 -4.7921834 -3.6687622 -4.179536 -4.8742623
-4.351329 -4.824312 -4.729985 -3.977315 -3.8471375 -3.7496922 -3.5433571 -3.2858005
1.8483461 2.229132 -11.180509 -11.579362 -11.553066 -6.391385 -11.357454 -11.139554
-11.507085 -11.6129675 -11.528606 -10.966143 -11.502575 -11.399346 -11.5915 -11.388941
00000000: 1082 1b40 416b 61bf 9846 42c1 f0d7 f53f
00000010: aea9 3ec1 5387 42c1 969f 42c1 19bb 45c1
00000020: 04b8 42c1 c1e8 41c1 2c15 43c1 1e33 41c1
00000030: 8ae7 43c1 72fc 46c1 b5f6 41c1 81ae 42c1
00000040: 0469 41c1 97d2 3fc1 e93d 43c1 993e 3fc1
00000050: 553e 3ec1 dad5 41c1 f913 44c1 b45b 43c1
00000060: 4f7e 45c1 d5c1 a8bf cbdc acbf c0f8 bfbf
00000070: c154 8abf 3379 ebbf 67aa 1cc0 ad7c 2fc0
00000080: f7fa c3bf 2b21 83bf 2278 b4bf 57f8 1cc1
00000090: ec56 63c0 b2bc 51c0 741f 13c0 9446 ecbf
000000a0: e429 13c0 27ae 40c1 5451 e6c0 2602 88bf
000000b0: 53b4 dc3e c15f 01c1 514d 84c0 af6e 8fbf
000000c0: 298b 44c1 94f3 41c1 6564 04c0 c92a 88bf
000000d0: 7243 44c1 0633 91c0 d7de 363f 1029 123d
000000e0: dee4 263d d653 33bf 67f1 09bf 6656 60be
000000f0: 3d84 4dbf 97e8 e5bd f0e4 97be d7d1 80c0
00000100: 412c 17c0 c4e9 00bf 74e5 16bf 7ea2 98bf
00000110: 3ca5 85be 61ea 77be bd15 b2c0 d028 48bf
00000120: 309b a53e 0888 7c3f 74ef b0bf 3e59 04c0
00000130: 92f5 9f3e 7422 42c1 8b08 aabf 60ea 3cc1
00000140: 54d5 62c1 4b3b 253f 8c51 62c1 56df d3be
00000150: a3f2 ecc0 9771 39c0 57ed 62c1 989b 61c1
00000160: 9528 80c0 0cdb 60c1 ef76 62c1 26ed 62c1
00000170: 4a0c 62c1 6721 20c0 f00d 80c0 a5fd dec0
00000180: 5244 edc0 0f62 b0c0 4221 e0c0 fb92 dfc0
00000190: 85df afc0 0977 d6c0 b0ba 62c1 b6ee 61c1
000001a0: 8624 62c1 3761 eabf 5577 bcbf 1c3c 0ac0
000001b0: 2c3e 72bf dc0e e1bf 8232 2fc0 497f ecbf
000001c0: 5a03 fdbf 5738 c0be 056c aabf 5354 55c0
000001d0: ea7c 12c0 e776 debf 8053 46c0 6ed1 babf
000001e0: 1990 b6bf 5b2d edc0 fc76 15c0 a126 c0bf
000001f0: c1ad 2ebf edca 57c0 02b5 1dc0 d321 0abf
00000200: e554 62c1 d7b3 4fc0 2e67 c1bf a7ef 1bc1
00000210: 8624 63c1 7a7f 5dc0 ce07 ef3f d8d4 763f
00000220: 3f1f 303f 451a 9e3e a619 973d cdc1 203f
00000230: 0b19 4d3e 1047 8f3f 507b 593f 3e06 d2bf
00000240: 0c55 6dbf ddab 9a3e 2f2e 0d3f 4a8d 143e
00000250: 2c6a 8a3f e65f a13e a44d f5bf fc59 d03d
00000260: 9bd3 b23f bbe1 1140 fbeb 27be 2811 73bf
00000270: 2e82 a83f ae08 63c1 8bb6 1cbe cb72 14c1
00000280: b9a9 a5bf f667 4c3f 5a3c b1c0 6581 3640
00000290: ef23 9fc0 2042 8bc0 543b 87c0 656e 19c0
000002a0: 5a13 95c0 4311 8bc0 efa0 89c0 834e 83c0
000002b0: 0ac2 4cc0 97c1 9ac0 e3f1 95c0 23e1 93c0
000002c0: 68d7 55c0 4726 97c0 a577 b6c0 ff68 85c0
000002d0: 7e96 5ec0 c2e3 b2c0 fc31 77c0 99a0 6dc0
000002e0: 6d43 87c0 886e 7bc0 87c9 7cc0 115a 8fc0
000002f0: 9ffa 7cc0 e711 b5c0 35a5 47c0 d348 a1c0
00000300: 39d3 93c0 5b2a 6ac0 596e 21c0 453a a7c0
00000310: 39bf 7ec0 52e8 87c0 d585 85c0 05ae 8cc0
00000320: c444 63c0 4cdc 37c0 4b49 8ec0 36cb 7cc0
00000330: 2d25 70c0 54be 98c0 d91b 7fc0 29e9 84c0
00000340: 6875 5dc0 f636 dcc0 4b16 b2c0 6e8c 93c0
00000350: d598 9ac0 90e1 8ec0 0c61 7bc0 eb96 9ac0
00000360: a0f9 5dc0 83a7 78c0 4aea 80c0 52c2 7dc0
00000370: be64 bcc0 b941 8bc0 1c4f 63c0 6bc1 57c0
00000380: 6d93 8cc0 be0e 9ec0 afbe 34c0 f52f 91c0
00000390: 9159 99c0 00cd 6ac0 c2be 85c0 f5f9 9bc0
000003a0: 163e 8bc0 c460 9ac0 0a5c 97c0 548c 7ec0
000003b0: 8037 76c0 f5fa 6fc0 5dc6 62c0 8e4a 52c0
000003c0: 9b96 ec3f 19aa 0e40 5de3 32c1 1145 39c1
000003d0: 5cd9 38c1 3a86 ccc0 22b8 35c1 9d3b 32c1
000003e0: 051d 38c1 b7ce 39c1 2c75 38c1 5275 2fc1
000003f0: 8c0a 38c1 b963 36c1 c976 39c1 1a39 36c1
